[INFO]: using device: cpu
[INFO]: Training data loader called
[INFO]: processing subjects: [1, 5, 6, 7, 8]
samples - 75
[INFO]: Validation data loader called
[INFO]: processing subjects: [9, 11]
samples - 30
LinearModel(
  (w1): Linear(in_features=32, out_features=1024, bias=True)
  (batch_norm1): BatchNorm1d(1024, eps=1e-05, momentum=0.1, affine=True, track_running_stats=True)
  (linear_stages): ModuleList(
    (0): Linear(
      (relu): ReLU(inplace=True)
      (dropout): Dropout(p=0.5, inplace=False)
      (w1): Linear(in_features=1024, out_features=1024, bias=True)
      (batch_norm1): BatchNorm1d(1024, eps=1e-05, momentum=0.1, affine=True, track_running_stats=True)
      (w2): Linear(in_features=1024, out_features=1024, bias=True)
      (batch_norm2): BatchNorm1d(1024, eps=1e-05, momentum=0.1, affine=True, track_running_stats=True)
    )
    (1): Linear(
      (relu): ReLU(inplace=True)
      (dropout): Dropout(p=0.5, inplace=False)
      (w1): Linear(in_features=1024, out_features=1024, bias=True)
      (batch_norm1): BatchNorm1d(1024, eps=1e-05, momentum=0.1, affine=True, track_running_stats=True)
      (w2): Linear(in_features=1024, out_features=1024, bias=True)
      (batch_norm2): BatchNorm1d(1024, eps=1e-05, momentum=0.1, affine=True, track_running_stats=True)
    )
  )
  (w2): Linear(in_features=1024, out_features=48, bias=True)
  (relu): ReLU(inplace=True)
  (dropout): Dropout(p=0.5, inplace=False)
)
